sq3_net.pt (torch, 261463 bytes, 6 tensors)

fc1.weight f4 [200, 22]
00000000: ac84 5abb 140b ee3d d5b6 33be 45c2 20be
00000010: 3635 a6bd 68a1 693d df9d 4fbb c74a 2f3e
00000020: 6884 a2bc d906 673d f2f4 83bd 98a7 2bbd
00000030: c091 50be 7a96 10be b6fd b3bd 7065 013c
00000040: 009e ac3d d8fe 023e a501 14be 6b23 bebd
00000050: e497 9e3d ca49 353e 9d90 3dbd 55e6 1f3e
00000060: ba55 1dbd a1e9 983c 6525 423e 4030 4ebe
00000070: 7672 0dbe f75d 6dbd 0c8c b2bd c079 393e
00000080: a738 0fbe 9cf1 bebd 8cbe 14be ba77 4cbe
00000090: aee1 febd 52aa 3b3e a8d5 c23d 04a0 d33d
000000a0: e0b4 373c 09db dfbd 74be 133d 89d7 4bbe
000000b0: 41ad 04be c83d adbd 5235 233e 7313 1a3e
000000c0: 4b78 8dbd 5e89 903c 3a9f 253e 99ec 723e
000000d0: f298 e13d 58cd 5d3d 8436 2c3e 3a0d cfbd
000000e0: 3c23 763d 64f8 21be 1850 17be fa8e e1bd
000000f0: cc90 c53d ec98 af3d 2952 01be 1ce9 833d
00000100: 50b3 ef3d 9871 dcbc 381e 993c 8ae8 713d
00000110: b61e 113e 221b 5b3e ef9b 1ebe 6fd6 8cbd
00000120: bff8 bd3d 1f42 3e3e 1631 473e dc11 4a3e
00000130: 68c7 513d e1f3 34be f10f f53c 2813 01be
00000140: 4176 4bbe 36f9 413e f8ff 253e 21c7 59be
00000150: a873 233d 701c 13bd d4b4 0fbd 6adf c7bd
00000160: b5b5 c53d 42c8 e1bd defa c03d 1a6e fd3d
00000170: f4aa 2c3e 3468 c43d 8ede 46be 8644 f8bd
00000180: d925 fd3d 1c6e 7c3d bf64 18be d28f d6bd
00000190: 78a9 603e b5cd 203e 4562 bebd f0c9 5bbd
000001a0: 08f8 4fbe 0024 7bbb ed67 24be 9466 28be
000001b0: a077 40bc 001e 033d b5aa 78bd 13e3 1c3e
000001c0: f611 d3bd 116a 613e 65f5 303e 89c7 1cbe
000001d0: 58ce d7bc 5fe0 143d e8c4 6c3d ac50 9e3d
000001e0: 5f0a e23d 8346 213d 90bb a0bd aaf5 f23d
000001f0: bd6b 51be f465 01be 089b 5abd d7b0 d4bd
00000200: e0bf 98bd 13f0 32be 00c2 39bd c8aa 3a3d
00000210: c27e eebd 4cff 363c e8b1 323e eced f0b9
00000220: 2b9d df3c 1a07 4d3b c253 843d 3507 213e
00000230: 6f12 653e b046 213e f7c9 663e ee3b 0e3c
00000240: 1662 2fbe 1a4f b5bd 50a7 143e 8026 b5ba
00000250: 2207 d9bd 9f4c 27be 1b50 4cbe 0543 38be
00000260: 9c21 31bd 0c74 ef3d 06ab 103e fd91 38be
00000270: 6a6c 223e f3ee 11be 6795 e6bc 8da3 a3bd
00000280: 2d09 26bd d075 2bbd 40e8 43be ee80 3cbe
00000290: 1ca6 08bd 40b1 343b 345a c6bd e87a a43d
000002a0: a07f 44be 00bd 6bbc 20fe 3f3e 9619 b2bd
000002b0: 3424 453e 0821 9e3d e605 45be 0221 0a3e
000002c0: 4c33 d7bc ab54 c2bd fdbe 2e3e 4453 30be
000002d0: 5eed bd3c e0f3 34bd 94a8 1c3e 4dc3 753d
000002e0: 948c d33d 95eb 9c3d bfc6 4bbd 76c7 31bd
000002f0: 192d 33be 7700 ef3d e056 2d3e d860 153e
00000300: 18ff 19be 80ca 1b3c 44e6 19be 575c f0bd
00000310: fe6d febd c437 953d 2a19 02be 206b 98bb
00000320: 80f2 123c 86bb 0c3e d607 25be aee0 15be
00000330: 8589 fdbd c8ce 183e 7cf4 9cbd fc25 383e
00000340: fce3 9d3d 5028 dd3c 8005 d0ba 20a1 2cbd
00000350: d021 db3c 1868 47bd 005a c4ba b0d8 de3c
00000360: e3c4 2abe aada e4bd 324a 303e c42c 31be
00000370: ffd4 e2bb ad09 5f3e e253 ac3d 1fd3 543c
00000380: b66f 36be 39cf e53d 51fc 14be 5b9f 5ebd
00000390: 730f 86bd 501d d3bc 3f75 033c f3df 393e
000003a0: d6fd 103d 4397 473e 2c8c 053e fd05 0abe
000003b0: 28d5 c33d eb53 1abe 920e b9bd 9c6c 803d
000003c0: 682c 903d b6c9 233e 12ba 44bd 91ec ad3c
000003d0: 3066 043e cc77 3fbe b259 323e dcf4 20be
000003e0: 44d4 bb3c aaab 82bc 03ce bcbd ded9 493d
000003f0: 6afe 4a3e 9e22 42bd 7abd fabd ab15 a1bd
-0.0033343239 0.11623207 -0.17550214 -0.15699108 -0.08115618 0.057038695 -0.0031679792 0.17118369
-0.019838527 0.056403015 -0.06443204 -0.041907877 -0.20368099 -0.14119902 -0.08788626 0.00789772
0.084285736 0.12792528 -0.14453752 -0.09284099 0.077438146 0.1770393 -0.046280492 0.15615208
-0.038411833 0.01866609 0.18959577 -0.20135593 -0.13813195 -0.05795094 -0.08718118 0.1811285
-0.13986455 -0.09323427 -0.14525813 -0.19967547 -0.12445389 0.18326691 0.09513408 0.10333255
0.011212558 -0.109304495 0.036070302 -0.19906439 -0.12956716 -0.084590495 0.15938309 0.15046482
-0.0690771 0.017643627 0.16174021 0.23723067 0.110155 0.05415091 0.16817671 -0.10109945
0.060092196 -0.1581741 -0.14776647 -0.11013599 0.096467584 0.085740894 -0.12628998 0.064409465
0.11704123 -0.026909634 0.018691167 0.059059657 0.14171872 0.21397069 -0.15489171 -0.068768375
0.0927596 0.1857991 0.19452319 0.19733375 0.05121556 -0.17671157 0.029914828 -0.12604964
-0.19869329 0.18942723 0.16210926 -0.21267368 0.03990522 -0.035915792 -0.03508456 -0.0975941
0.096537985 -0.11024524 0.09422849 0.12374516 0.16862088 0.09590188 -0.19420835 -0.12122445
0.123607345 0.061628446 -0.14882182 -0.1047665 0.21939647 0.15703471 -0.09296087 -0.05365938
-0.2030946 -0.0038321018 -0.1605527 -0.1644538 -0.011747271 0.032011032 -0.060709674 0.15320997
-0.1030616 0.22013117 0.1728111 -0.15310492 -0.02634351 0.03634679 0.057804972 0.07730231
0.110371344 0.039373886 -0.07848275 0.11863263 -0.20451255 -0.12636548 -0.053370506 -0.10385292
-0.07458472 -0.17474394 -0.04535103 0.045573026 -0.11645271 0.011169266 0.17450678 -0.00045953633
0.027296623 0.003128475 0.06461288 0.15725406 0.22370313 0.15749621 0.22537981 0.008681281
-0.1712726 -0.08852978 0.1451695 -0.0013820678 -0.105970636 -0.16337822 -0.19952433 -0.17994316
-0.043244943 0.11692056 0.1412774 -0.1802444 0.15861669 -0.14251308 -0.028147412 -0.07990179
-0.040536094 -0.0418604 -0.19131565 -0.18408558 -0.03336154 0.002757147 -0.09685174 0.08031255
-0.1918931 -0.014388323 0.18749285 -0.086962864 0.19252092 0.07721144 -0.19240531 0.13489154
-0.026269577 -0.094888054 0.17065044 -0.17219263 0.023184475 -0.04417789 0.15298682 0.060000706
0.103295475 0.07662121 -0.049750086 -0.04340311 -0.17497672 0.116700105 0.16927671 0.14587724
-0.15038717 0.009508729 -0.15029246 -0.117363624 -0.12423323 0.07286027 -0.12704912 -0.004651442
0.008968949 0.1374341 -0.1611627 -0.1463649 -0.123797454 0.14922631 -0.07663819 0.1798324
0.077095 0.026996762 -0.001587078 -0.04214585 0.026749521 -0.048683256 -0.0014980435 0.027202934
-0.16676669 -0.11174519 0.17215803 -0.17302233 -0.006922364 0.21781035 0.08414437 0.012989788
-0.17816052 0.11221165 -0.14549376 -0.054351192 -0.065459155 -0.025770813 0.008023559 0.18151836
0.035398327 0.19491296 0.13041753 -0.13478847 0.09562141 -0.15071075 -0.09035982 0.062707156
0.0703972 0.15994915 -0.048029013 0.021230968 0.12929606 -0.18698043 0.17417029 -0.15718406
0.022928365 -0.015950996 -0.09218981 0.04928004 0.19823614 -0.047396295 -0.12243171 -0.07865461

fc1.bias f4 [200]
00000000: 78bb 1ebe 83fe b2bd 2c0d 123e e5ad 9c3d
00000010: 587c 543e 440d 743e 3f3a 61bd 06ad 6bbd
00000020: 9af9 e93c a5d7 2dbe 3d8e fc3d 6f44 95bc
00000030: b8cd 36be 63d3 24be 8a6f 16be 06c6 aa3d
00000040: e05e 343e 39e4 473e 76f5 26bd 9d03 c8bd
00000050: 3ccb c1bd 0f23 15be fd2b efbc fa2b 45be
00000060: c600 073e bc7a 4dbe 30ce 07be 4b0e 2d3e
00000070: 09bb 09be d586 613d c2a0 3e3e 9d6b 6d3e
00000080: 245e 093e 5d76 fdbc 452e 173e 9664 e53a
00000090: c4ef 2ebd 4e99 df3c a12d 983d 5ab3 293e
000000a0: baf4 eb3d d8f9 023e 0adc 373d 8539 55bc
000000b0: ad3e df3d 8096 9f3d eae7 50be 2b5c 6a3d
000000c0: 19d7 8bbd b0a4 b3bd 8ab4 dd3d e5fd 8b3d
000000d0: ec3a 5e3d e921 cfbd 27e2 db3d 5239 683e
000000e0: 39dc 413d 9ba9 e93d 7a19 25be 4e55 193e
000000f0: ad6e ad3d d832 d63d c53c ec3d 9433 1ebd
00000100: c405 5c3c 6e83 693e 3ab9 3a3e cc7c 1cbe
00000110: 6386 3e3e c854 743e 1937 5e3d d353 2abe
00000120: 0fbc 8a3d 3807 debc 567e 383e 8ac1 51be
00000130: 58f0 a43d b440 8c3c e7ff 313d 5990 313e
00000140: b8a0 993c 64c3 2fbe c8c6 f5bd 6bc2 c6bd
00000150: a9ed 493d 9fcb aa3d d019 68bc 424c 6ebd
00000160: d510 f63d 2576 3dbe ba90 253e 8a42 0dbb
00000170: ff95 323e bb66 3f3e 124e 863c 1939 b63d
00000180: 976c d8bd deb4 373e 58c9 133e 7e8e 7abc
00000190: 191b e03d 64a5 35ba 7ff1 353e 9b87 e93d
000001a0: 0730 3a3e de84 30be bb42 5a3e fabc af3d
000001b0: cba3 043e bf96 823d d39e 133e 0d1d 593e
000001c0: e286 0b3c 4c22 33be f7ac 503e 8a07 9abc
000001d0: 2413 e1bd 8c1e 213e ab46 f53d aa91 603d
000001e0: 441e 8fba 2306 3dbd c51a 633e e036 043e
000001f0: d712 053e 59fb 253e 5592 b9bd 5f88 3d3d
00000200: 3fdd 3cbe 9a61 0e3e e565 58be fd2f 5abe
00000210: 8ecd 57be d454 103e 8e35 113d 2067 b03c
00000220: e878 523d 9929 5fbd 1097 84bd 960e 13be
00000230: 9f70 0ebd 45c5 14be 92da 013d 5306 463e
00000240: 3e7b 34be 4652 fc3d 5862 22be cfa0 a7bd
00000250: ff5a 283d c95f 803d 549a 393e 75cf d93c
00000260: 3502 b5bd 1294 b4bd 823d c23c e685 10be
00000270: e4a1 20be 4464 d4bd 66e0 003d 5670 13be
00000280: de90 d3bd d200 2f3e b183 643e 7765 8fbd
00000290: 854d 3bbe c256 bbbd 2f61 d03d ab7d c33d
000002a0: 545b 87bd c846 40be 622e 28bd 30f6 3abd
000002b0: 8a6c 183e f11e a4bd 7c0d 163e 56d1 663d
000002c0: 28ef a4bc 6b8f 42be fe0f 623e 00b8 1bbd
000002d0: 38a6 233e 87db e1bd 700b 3cbe 7605 2ebe
000002e0: e0c4 dfbd 7756 31bd cebc 45bc 6a33 473e
000002f0: 5f58 49be 9576 ff3d 2bf9 483e c49d dc3c
00000300: 6f8b 04be f073 063d 055c 9c3d b71a ef3d
00000310: 5634 22bd d408 48bd ddfd cdbd e928 53be
-0.15501201 -0.087399505 0.14262837 0.07650355 0.20750558 0.23833185 -0.05498719 -0.057538055
0.028561402 -0.16976793 0.12331817 -0.018221108 -0.17851913 -0.16096263 -0.14690986 0.08338551
0.17614317 0.19520654 -0.040761434 -0.09766314 -0.09462592 -0.14564155 -0.02919578 -0.19255057
0.13183889 -0.2006635 -0.13262248 0.16899984 -0.13450254 0.055060226 0.18616012 0.23185582
0.13414818 -0.03094023 0.14763744 0.001750129 -0.042709127 0.027294781 0.07430578 0.16572323
0.11521287 0.1279062 0.04488758 -0.013014202 0.10900626 0.077923775 -0.20400968 0.057216804
-0.06828136 -0.08771646 0.10825451 0.06835536 0.05425541 -0.1011389 0.107364945 0.22678116
0.04732916 0.11409303 -0.16123 0.14973947 0.08468375 0.104589164 0.11535028 -0.038623407
0.013429109 0.22804043 0.18234721 -0.15281981 0.18605952 0.23860466 0.054251764 -0.16633539
0.067741506 -0.027103052 0.18016943 -0.20483986 0.080536544 0.017120697 0.043456938 0.1734022
0.018753394 -0.1716438 -0.12000805 -0.09705051 0.049298916 0.08339619 -0.01416631 -0.058178194
0.12014929 -0.185021 0.1616849 -0.0021554553 0.17440031 0.18691532 0.016394649 0.08897609
-0.10567587 0.17940089 0.14432275 -0.015292762 0.109426685 -0.0006929247 0.17767905 0.11402818
0.18182383 -0.17238185 0.21314518 0.08580966 0.12953107 0.06376409 0.14416055 0.21202488
0.008516045 -0.17493552 0.20378481 -0.018802423 -0.10989979 0.15734309 0.119763695 0.054826416
-0.0010919054 -0.04614843 0.2217818 0.12911558 0.12995468 0.16209163 -0.09061114 0.04627263
-0.18443774 0.1390442 -0.2113262 -0.21307369 -0.21074507 0.1409486 0.035451464 0.021533549
0.051384836 -0.05448303 -0.064741254 -0.14361033 -0.034775373 -0.14528377 0.031702586 0.1933835
-0.17625138 0.1232038 -0.15857828 -0.08184969 0.041102406 0.062682696 0.18125278 0.026588181
-0.088383116 -0.08817305 0.02371097 -0.14113578 -0.15686756 -0.10370687 0.031464003 -0.14398322
-0.103303656 0.17090157 0.22315861 -0.07001775 -0.1829129 -0.09147407 0.10174786 0.09545454
-0.06609216 -0.18777001 -0.04105986 -0.04564494 0.14885154 -0.08013714 0.14653581 0.056351982
-0.02013357 -0.19000022 0.22076413 -0.038017273 0.15981376 -0.110282 -0.18363738 -0.1699427
-0.10926223 -0.04329535 -0.01206894 0.19453207 -0.19662617 0.124737896 0.196263 0.026930697
-0.12943815 0.03282541 0.07634739 0.11675017 -0.039600693 -0.048836544 -0.10058186 -0.20621075

fc2.weight f4 [200, 200]
00000000: 7ecf cc3c f635 e2bc 61bf e9bb 297e d73c
00000010: 6dfa a63d ba12 b83d d75c cebc 0473 b43d
00000020: 2c86 b73d 6ef9 693d 38f5 073d b882 9f3d
00000030: cab8 0c3d d4d3 4fbd 6aa8 18bd 30a5 e53c
00000040: 1c30 bdbc 16d0 6e3b 850b ac3d 4f12 723d
00000050: ce3b 7c3d 801a 0e3a 2721 17bc 10b1 3f3d
00000060: 8495 033d 8819 433c 9c6e f5bc bbaa 653d
00000070: 18bf e3bc 7ed9 aa3d 1ee2 b53d bf1f 573d
00000080: f478 a73d b72e 8f3d 80f5 fab7 8edf 0cbd
00000090: 7fc9 143d 6824 923d 169f a03c 0af2 063d
000000a0: 6bc7 a13d cc3c 663d 25a0 a33d 2ed7 2f3c
000000b0: 0d30 0f3d d8f3 243c d07f 43bc e596 33bc
000000c0: 4ff6 973d 8e21 bb3d 1159 593d 0a67 d93c
000000d0: f0bb 703b 1efb 8ebd 2592 643c 789b bfbc
000000e0: a1c9 d8bc c9e6 543c 200a 533c a70e 293d
000000f0: 0672 c7bc 8d78 9f3d a629 19bd bfa4 f3bb
00000100: a097 64b8 37b9 ff3c 7748 663d 6ca7 98bc
00000110: b183 1b3d 6dac 273c eac1 58ba f80c 22bc
00000120: 4ed0 283d 66bb 32bd 24cf b5bc 4646 623d
00000130: ae43 6f3d 5dec cd3c 856e ef3c 74ac 163d
00000140: 3d9e 303d fdbd 45bd d3c7 a63a 9927 23bd
00000150: 8334 eabc a95c 613c 24d5 903c 7676 a83d
00000160: b077 203d 1d69 97bb fe32 cc3c e4e5 873d
00000170: ae75 b63b 63f0 613c 2426 273c 25f1 09bd
00000180: 984c 853c 5075 1dbd 023e 34bc f346 c3bc
00000190: 3f10 a33d d985 21bd bbee c23d 413b 5b3d
000001a0: 62cf aabc b206 9d3d cbef 393c f2b5 06bd
000001b0: c8f6 8b3c 43c8 723d aee7 2abd 53fb b13c
000001c0: 523e 643d c6c0 e1bc 3913 093d abcc 80ba
000001d0: 4118 3abd 55b9 a83d f7b3 bdbc 5f90 d63c
000001e0: 9cd5 4d3d 96a1 4cbc cf4b 7a3d 1fd7 01bd
000001f0: 14a5 c13d f882 6f3d 088c 853c df21 02bd
00000200: 00e9 0e3b fc20 553d 224d 1dbd 70e6 11bc
00000210: d751 90bd 72de 32bd f214 9d3c 7b8d b03d
00000220: 03f2 c03c a40e 493d 468a e7bc fa24 bdbc
00000230: c5f6 9c3c d212 10bd 44d9 8f3d bd8c 913d
00000240: c428 61bd c64e 473d c64b efbc 5a4f 8cbc
00000250: f31f 1f3c d8db 963b cf67 58bc ac49 193d
00000260: fa0b 253d a0c4 32bc 750c b53c e528 043d
00000270: d761 c2bb cb2b 4b3d c3a6 bb3d e0c4 d3bb
00000280: db4f 023d cdf6 ab3d bbef ad3d dc74 57bd
00000290: fc20 06bd 96b0 8cbd ec19 903d cbcc a73d
000002a0: 3ad4 d2bc d4cf b93c 1ae5 333d cee3 0abd
000002b0: 49a1 613d 50e0 743d da95 e93c 7e0f 0c3d
000002c0: 291c 323d 08a7 503d a626 b73d d882 263c
000002d0: 15ce 693d be8c 97bc 7d87 8c3d 84da e3bc
000002e0: 58bd 6ebd 2458 6d3d d20d 5a3d 8787 2e3d
000002f0: 2c75 f63c 7939 113d 1f36 513d f81b 603d
00000300: a3c9 37bc 33a3 b83c e4e8 193d dc5d 853c
00000310: c2eb 0abd 63f9 093d 4e01 313d eae4 1abd
00000320: ce14 8e3d fe89 283d 39b5 663d ee82 9aba
00000330: 749a 02bd 64f6 83b9 6eb1 e13c 0563 10bc
00000340: 55cf b63d a05f 39bd 947e b0bc b78b c0bb
00000350: e7eb 813d 696f 04bd 2ff9 853d 26a6 763d
00000360: 5ed4 7a3c 81c8 803d f0e6 703d 6629 45bc
00000370: c082 6ebc 9745 8c3d 0d24 883d 3176 0dbd
00000380: 28b2 df3b fa55 223d 2009 133d 5412 013d
00000390: 27f8 cabc e0d2 d3bc 2d59 363c 6231 553d
000003a0: d760 973c 4b10 0cbd 44ba 0c3c 0d43 c53d
000003b0: 502a 0dbd 3b9d edbc 6a5b 8f3d b10f c53d
000003c0: 7f32 2dbd 580f 1cbd 7274 673b 3a89 903d
000003d0: 7ac5 66bc d038 033d fa6e 6c3d 101d eab8
000003e0: 02fa 753b d597 bebc 1de4 e93c 515b b23d
000003f0: a516 5e3d 2694 4b3d 2f2c ad3c d08d 703c
0.025001284 -0.027613621 -0.00713341 0.026305275 0.08153234 0.08987947 -0.025190754 0.08811
0.08961138 0.05712264 0.033192843 0.077886045 0.034355916 -0.050739124 -0.037269987 0.02803287
-0.02309423 0.0036439947 0.08400635 0.05909949 0.06158047 0.0005420819 -0.009224213 0.04679972
0.03212501 0.011907943 -0.02995997 0.056071024 -0.027801082 0.083422646 0.08881019 0.05252051
0.08177367 0.06991332 -2.9916642e-05 -0.034392886 0.036324974 0.0713585 0.019607108 0.03294567
0.07899364 0.056210324 0.079895295 0.010732455 0.034957934 0.0100679025 -0.011932328 -0.010961269
0.074200265 0.091372594 0.053063456 0.02653839 0.0036733113 -0.069814906 0.013950859 -0.023389563
-0.026463332 0.012994477 0.012880832 0.04127374 -0.024346363 0.07786665 -0.037393235 -0.0074354107
-5.4500648e-05 0.031216247 0.05622145 -0.01863452 0.037967388 0.010233981 -0.00082686415 -0.009890787
0.04121428 -0.04363575 -0.022193499 0.0552428 0.058414154 0.02513712 0.029227505 0.036785558
0.043119658 -0.04827689 0.0012724347 -0.039832685 -0.028589493 0.013755002 0.017679758 0.0822572
0.039176643 -0.004620685 0.024926659 0.06635645 0.0055682277 0.013790223 0.0102019645 -0.03367724
0.016271874 -0.038441956 -0.011001112 -0.023837542 0.07962083 -0.039434288 0.095181905 0.053523306
-0.020850841 0.07667293 0.011348675 -0.03288836 0.017085448 0.059273016 -0.041724853 0.021726286
0.055723496 -0.027557742 0.033465598 -0.0009826621 -0.045433287 0.08238474 -0.023157103 0.026191888
0.050252542 -0.012489697 0.061107453 -0.031699296 0.09455314 0.05847451 0.016302124 -0.031770583
0.002180636 0.05203341 -0.038403638 -0.008905038 -0.0704686 -0.04366917 0.019175027 0.08620735
0.0235529 0.049086228 -0.028264176 -0.02308892 0.019160638 -0.0351742 0.07023862 0.07106922
-0.054970518 0.04865911 -0.029210936 -0.017127682 0.009712207 0.004603844 -0.013208344 0.037423775
0.040294625 -0.010911137 0.022100667 0.032265563 -0.0059320736 0.04960231 0.09162667 -0.0064626783
0.031814437 0.08396683 0.084929906 -0.05260168 -0.0327463 -0.068696186 0.07036194 0.08193358
-0.025735963 0.022682108 0.04391966 -0.033908658 0.055085454 0.059784234 0.028513838 0.034194462
0.043483887 0.050940543 0.089429185 0.0101630315 0.0570813 -0.018499728 0.0686178 -0.027814157
-0.05828604 0.057945386 0.053235836 0.042609718 0.030085169 0.0354552 0.051077005 0.054714173
-0.0112175075 0.022538757 0.037575617 0.016280107 -0.033916242 0.0336851 0.043214135 -0.037815966
0.06937562 0.041147225 0.05632517 -0.0011788288 -0.03188558 -0.00025169842 0.027550425 -0.008812671
0.08926264 -0.04525721 -0.021544732 -0.0058760303 0.06343823 -0.03233281 0.065416686 0.060217045
0.015309421 0.06288243 0.05881399 -0.012033796 -0.01455754 0.06849211 0.06647501 -0.034536544
0.006826658 0.039632775 0.035897374 0.03151162 -0.024776531 -0.025857389 0.01112966 0.05204905
0.018478794 -0.034195226 0.008589331 0.096319295 -0.03446418 -0.029005637 0.06999858 0.096221335
-0.042284485 -0.03810057 0.003531721 0.07057424 -0.014085168 0.032036602 0.057723023 -0.00011163403
0.003753305 -0.023265759 0.028551156 0.087088235 0.054220814 0.049701832 0.021139232 0.014682248

fc2.bias f4 [200]
00000000: b433 0fbd 0948 b83d 425c 90bd 3d35 0f3d
00000010: c0bd e23a 0ff1 873d 6147 06bd ed13 673d
00000020: 54a5 673d ec7a 713b ae46 97bb 91e7 44bd
00000030: ac28 013b 11ee 3c3d 7abd 2f3d ed88 d23c
00000040: 60ae 2abd bc7d 48bd b9e1 7f3c 0c73 293c
00000050: d5e3 45bd 33fc 1bbd dbc6 c2bc 086c 05bc
00000060: 068c d8bb 3da1 613d 849e 983d ef53 c73c
00000070: 39d4 fb3b b388 13bd 3cc9 b5bc 7cbf ac3d
00000080: 1db5 1b3d 3827 123c 05ef 2b3d 9e90 50bd
00000090: b055 67bc 81f1 9f3d ce1a 0cbb 8071 813d
000000a0: 7574 f7bc f9ce 2dbd 70f8 b0bc f969 8bbc
000000b0: b319 e8bc d6cd 02bd bdfa 0dbd e20b 72bd
000000c0: dcb5 ad3b c05c 09bd 942c dabc 3ca8 35bd
000000d0: 4c2d 82bc ab6f 253b 2c64 f23b d20f 5bbc
000000e0: 08dc eebc 554e 0b3d 0e0e 9cbc c442 0cbc
000000f0: bc34 013d 0030 8f3d fdf0 193d 306c 8fbb
00000100: 9c45 a5bc 6cd7 2e3d 2ed6 833d efc0 7b3d
00000110: 2b49 bf3c e0d6 3dbd d411 85bd b1c5 ff3c
00000120: 3b32 873d 8bcf c53d 626c 673d a8c6 7ebd
00000130: c501 993c 6790 c13d fef7 ed3c 9b4a a43d
00000140: 3e3d 89bd 5eff 12bd e6d5 c93c 828d 25bd
00000150: 36d2 fd3c df2d 37bd e55a 8e3d 8314 073d
00000160: ca95 403d c758 603d cae6 d13c 31f9 85bd
00000170: 3707 933d 6191 8b3d 6f1b 02bd 3aa2 983c
00000180: 4fab 153d ef7e 0dbd 1585 a6bc 2736 95bd
00000190: c3a3 193c bf97 8cbc d279 89bb f66f 7a3d
000001a0: d894 f13c b27c 953d c23b 2ebd c8da 0b3d
000001b0: 42af a33d 51d2 11bd f2a9 093d 2c04 ccba
000001c0: c7e6 edba b086 7f3d 4241 503a 1b5a 0c3d
000001d0: fcd6 b53c 278f 843c 7466 56bd fc61 f23c
000001e0: f950 2c3d b4e8 e8bc 044b 233b 4b92 993c
000001f0: d24a bf3b 7b2d 7c3d 34f6 8e3d 4d17 543d
00000200: d5b0 0d3d 27f0 31bc 8502 0ebd 1728 3b3d
00000210: 893c 963c 2000 79bd 0775 90bd cb83 ec3c
00000220: 28fe 87bd 1f6f c1bc 0a15 3b3d c72e 83bc
00000230: 4d08 04bd 73f5 9ebd 36b3 1cbd b749 a03d
00000240: ee95 9bbc 6042 f43c 26f6 99bd 8242 0bbd
00000250: 2e5e 933c b469 99bc 622c 973d a0ab a4bc
00000260: c3bd 693d ae32 ee3b 807a cdbc fe49 d23c
00000270: 4c40 cf3c beca 4cbd 762d 77bb 2353 2c3d
00000280: 7874 8cbc 8845 713c 0736 87bd 8d86 043d
00000290: 331a 833c 91c0 893c 6929 a53c d376 e43b
000002a0: 4134 2e3d cc50 203c 6d1b a33c 96cc 493d
000002b0: 6576 6fbd 49cd 693d 3563 c5bc 3037 583d
000002c0: cafc 573d 299d 1f3d bff7 1ebd bebb d83c
000002d0: c39f df3c bc99 34bd 8c5c f23c 29dd 2bbd
000002e0: 5dc7 9c3d 4e0d af3d 1f14 f3bb 8da9 3ebc
000002f0: bd90 c83c f4c9 39bd 6419 92bd f0c9 5a3c
00000300: 7ec9 2f3d d1e5 813c 22ec c93c 0467 a4bc
00000310: 09fd 84bd f4d1 a73d 4409 4abb 8622 9b3d
-0.034961417 0.089981146 -0.07048847 0.03496288 0.0017298982 0.06637775 -0.032782916 0.056415487
0.056554154 0.0036846949 -0.00461658 -0.0480724 0.001970808 0.046125475 0.04290531 0.025700057
-0.041670203 -0.048948035 0.015617781 0.010342371 -0.04831298 -0.038082313 -0.023776462 -0.008143432
-0.006608489 0.05508541 0.074521095 0.024332015 0.007685211 -0.03601904 -0.022190683 0.0843496
0.03801452 0.008920483 0.041975994 -0.050919168 -0.014119551 0.07809735 -0.0021378282 0.063204765
-0.030206898 -0.042433713 -0.02160284 -0.017018305 -0.028332567 -0.03193458 -0.03466295 -0.059093364
0.0053012203 -0.03353572 -0.026632585 -0.044349894 -0.01589074 0.0025243561 0.0073971953 -0.013370471
-0.029157653 0.03401025 -0.01904967 -0.00856084 0.031544432 0.06991577 0.03758334 -0.0043769106
-0.020174794 0.04268591 0.06437336 0.061463293 0.023350319 -0.0463475 -0.06497541 0.031222196
0.066013776 0.09658726 0.056499846 -0.062201172 0.018677602 0.09451371 0.029048916 0.08022042
-0.06701134 -0.03588807 0.024638128 -0.040418155 0.030984025 -0.04472148 0.069509305 0.032978546
0.04701785 0.054772165 0.025622744 -0.0654167 0.071791105 0.06814838 -0.031764444 0.018632043
0.036540326 -0.03454488 -0.02032713 -0.07285719 0.009377423 -0.017162202 -0.0041954303 0.06114193
0.02948992 0.07299174 -0.04253746 0.034144193 0.07992412 -0.035600964 0.033609338 -0.0015565208
-0.0018150442 0.062384307 0.00079442945 0.03426562 0.02219724 0.016181542 -0.0523438 0.029587738
0.04206941 -0.028431274 0.002491654 0.018746516 0.0058377767 0.06156681 0.06980553 0.051780034
0.03459247 -0.010860479 -0.03467037 0.04569253 0.018339412 -0.060791135 -0.07053571 0.028871438
-0.06640273 -0.023612557 0.04567436 -0.016013516 -0.03223448 -0.077616595 -0.038256846 0.0782656
-0.01899239 0.029816806 -0.07517652 -0.033998974 0.017989244 -0.018727161 0.07381512 -0.020101368
0.057065737 0.007269225 -0.025082827 0.025670048 0.025299214 -0.049998038 -0.0037716306 0.042071473
-0.01714538 0.01472605 -0.06602102 0.03235488 0.016003704 0.016815456 0.020161347 0.0069721728
0.042530302 0.0097848885 0.019910539 0.049267374 -0.05846252 0.05708054 -0.024095157 0.052787006
0.052731313 0.03896824 -0.038810488 0.02645671 0.02729786 -0.044091925 0.029585145 -0.04195896
0.07655213 0.085474595 -0.00741817 -0.011637104 0.02448308 -0.045358613 -0.07133749 0.01335381
0.042916767 0.015856655 0.02464873 -0.020068653 -0.06493575 0.08194342 -0.0030828277 0.07574944

fc_pi.weight f4 [100, 200]
00000000: abae b5bd 2e01 853b 2f94 833d 0476 7dbd
00000010: a836 e3bc a8ba b2bd 87ed 313c 8af1 503b
00000020: ae7a 4cbd b697 9bbd a0bb 4f3c f01a 01bd
00000030: e800 273d 0686 a9bd b635 a1bd 913d 3ebd
00000040: eff9 f8bc 5a3f ddbc 5a54 033d b70c b63a
00000050: a042 8fbc 1312 96bd 88fc 5ebd 5892 4c3c
00000060: 0ae3 0cbd ef4b e8bc ad98 c2bd e4d8 c93b
00000070: ac41 74bb 69da 97bd cfe4 26bd d607 1f3c
00000080: 136c 273d 0051 443d 15c5 81bd 90aa dbbc
00000090: 9a52 85bd 1778 8abd 3e2c a93c b3b4 84bd
000000a0: abf7 a3bc 51fa 593d 7a06 123d 94ae 43bd
000000b0: c08d 56bc fd69 a03c 1604 33bd c9e6 2c3c
000000c0: 9a82 1fbc ea19 10bd d8be 193d 9ef7 afbc
000000d0: cd9d 7fbd 3b55 743c e187 cfbb 8fc7 fbbc
000000e0: a42f 87bd 98c7 68bd a8b0 063d b8ce bebd
000000f0: bad1 ddbb ecf4 aebd 9fc0 103d b703 06bc
00000100: 98fa 15bc 31f4 64bb ac1d bbba 5c17 61bd
00000110: bb04 b1bc 6ac7 88bc 3c84 393d 4755 8a3d
00000120: 0cf5 86bd b631 98bd 5089 ae3c fa15 0a3d
00000130: 072b 03bd f92d 33bc 698c 9ebd 0592 49bd
00000140: e01f 32bb e639 a83b c49b 123d 004b 72bb
00000150: ad30 d6bc 1388 8e3c 4d28 8cbd 798f abbd
00000160: d841 d8bc e492 a1bd 7c69 1dbd f0c7 9a3c
00000170: 21fa 3ebd 51e1 1d3d ca71 ccbc b3d2 acbd
00000180: 91c0 0fbd a0bc b93c e9f7 133d 994d 923c
00000190: 7656 89bd aad2 d43c 3a83 163b 42be 5abd
000001a0: 2728 34bd f451 99bd 63e5 86bd 3044 f43c
000001b0: 8e04 dcbc eb63 113d 27ec 663c 40bc aabd
000001c0: 7f2c 8cbd 7cbd a2bc 04fd 89bd 4f0e 8cbd
000001d0: 78ee 883b f164 94bd f064 983b fe89 f73c
000001e0: ed7f 80bd ce91 45bd 86a0 0b3d 2f09 ed3b
000001f0: 2818 6cbd ddc3 cd3c 553a 31bd ae98 9ebc
00000200: 2f08 f3bc 2bb0 0b3d 09a4 203d 1c27 97bd
00000210: 63b0 a0bc d3c2 0dbd 248c e23c 0b2f 02bd
00000220: d0c8 5bbc 1ea4 50bd 7f98 37bd a3a6 64bd
00000230: e569 42bb bcf6 8abc 3879 853c 5be5 3bbd
00000240: 138d b9bc 35cc 82bd 8cd7 e2bc 8439 373d
00000250: 256f 773d 280f 52bd d8ec 873b deb4 473c
00000260: 63b9 07bd b02a e93c 1b8f da3c f141 15bd
00000270: 96cf 94bd 4ca7 59bd 133a b53c af92 d93c
00000280: 5839 c2bc 0d77 74bd 0e80 a93c cc9b faba
00000290: f0b7 87bd b7ba 433c bfbb 0dbd 814a 99bd
000002a0: 35ac cd3c 5923 69bc 69e1 6bbd 0a07 43bd
000002b0: 1c10 84bc 1764 193c 2bd9 94bd 7f9d dfbc
000002c0: 73da b9ba cf31 afbd 6159 18bd 0e94 983c
000002d0: 0dba 733d 8edc 783d f57a a9bb 29c3 54bd
000002e0: c06d 8dbc f0b4 74bd 89cc 8fbd effe d0bc
000002f0: b9de bebd f411 54bd cb39 2abd f076 16bd
00000300: 55ce 66bd 4b87 823c 7741 bf3c 3672 3bbd
00000310: 03a7 75bd 982e 90bc ac1b 7cbd 3d58 adbd
00000320: a0a4 b03c 447e 71bd 0278 76bd 49a1 9b3c
00000330: 0cfa b2bc 110f a4bd 867c dabc 4016 6bbd
00000340: 45a1 053c 2bc8 59bd f209 0dbd b8f6 d5b9
00000350: 7890 8bbc d4f6 a3bd d99b 7fbd 3a2a 48bd
00000360: 1742 76bd ed06 803d c019 023c d7c8 e8bb
00000370: 32f5 27bd 0adf 973b f23a a0bd fe39 163d
00000380: c457 233d 7319 7c3c 1e34 74bd c1d8 b3bd
00000390: 7404 953b 11fd 98bd f09d 1cbd c608 26bd
000003a0: 3358 bebd 82ff 903a 4e66 aa3c abfc 193d
000003b0: 89cc 1cbd b3b3 8a3c 054f 31bd 4168 d1bc
000003c0: 50db 8a3c c98a 1fbd 7a68 35bd 1ded 003c
000003d0: 45ab 6cbd 153c 32bd 0aff acbc 5975 84bd
000003e0: dfad fb3c 4e67 663d 78ba 5d3c 10b1 d13c
000003f0: 56c6 8abd 542d 9c3a f5bf 5b3c 4274 48bd
-0.08871206 0.0040589785 0.06424748 -0.061880127 -0.027736023 -0.08727008 0.010859854 0.003188225
-0.049921684 -0.07597296 0.012679011 -0.03151983 0.04077235 -0.08277516 -0.07871573 -0.046445433
-0.030392615 -0.027007747 0.032062866 0.0013889287 -0.017487824 -0.07327666 -0.05444005 0.012486063
-0.03439621 -0.02835652 -0.09501777 0.0061598886 -0.0037270589 -0.07414705 -0.040745553 0.009706458
0.040874552 0.04792881 -0.063364185 -0.026814729 -0.065098956 -0.067611866 0.02065098 -0.06479778
-0.020015558 0.053217236 0.035650708 -0.047773913 -0.013095319 0.01958179 -0.04370507 0.01055307
-0.009735728 -0.035180964 0.03753552 -0.021480378 -0.06240635 0.014912899 -0.0063333367 -0.030734805
-0.066008836 -0.056830972 0.032883316 -0.09316772 -0.006769386 -0.08542809 0.035339948 -0.008179597
-0.0091539845 -0.0034935588 -0.0014275811 -0.054953918 -0.021608701 -0.01669665 0.045292124 0.067545466
-0.06589708 -0.074313566 0.02130571 0.033712365 -0.032023456 -0.010936254 -0.07741625 -0.04921152
-0.0027179644 0.005133855 0.03579308 -0.0036970973 -0.026146257 0.01739887 -0.06843624 -0.083769746
-0.026398584 -0.07889345 -0.038430676 0.018894166 -0.04662526 0.038544957 -0.024956603 -0.08438625
-0.035095755 0.022672951 0.036125097 0.017859267 -0.06705944 0.025979359 0.00229664 -0.0534041
-0.043983605 -0.074863344 -0.06586721 0.02981767 -0.02685764 0.03549568 0.014094389 -0.08336687
-0.068444245 -0.019865744 -0.06737712 -0.06838667 0.0041788183 -0.072458155 0.0046507046 0.030217167
-0.062744 -0.048234753 0.034088634 0.007233761 -0.057640225 0.025117809 -0.04326852 -0.019359913
-0.029666988 0.034103554 0.039218936 -0.073805064 -0.019615358 -0.034609627 0.027654715 -0.031783145
-0.013414577 -0.050937764 -0.044823166 -0.05582298 -0.002966517 -0.016963355 0.016293153 -0.045873027
-0.022650277 -0.06386606 -0.027690671 0.044732586 0.06040873 -0.051283985 0.004148107 0.012189118
-0.033135783 0.028462738 0.026679566 -0.03643984 -0.072661564 -0.053138062 0.022122419 0.026559202
-0.023708984 -0.05968385 0.020690944 -0.0019119917 -0.0662688 0.011946372 -0.034602877 -0.074849136
0.025106529 -0.014229619 -0.057588015 -0.047614135 -0.016120963 0.009362242 -0.07267984 -0.02729678
-0.0014179483 -0.08554422 -0.037194613 0.018625285 0.059503604 0.060757212 -0.0051721283 -0.05194393
-0.017264247 -0.059742868 -0.07021434 -0.025512187 -0.09319825 -0.051774934 -0.041559022 -0.03673452
-0.056349117 0.015933653 0.023346646 -0.045763217 -0.059973728 -0.017600343 -0.061549827 -0.08464096
0.021562874 -0.058958307 -0.060173042 0.018997805 -0.021847747 -0.08010686 -0.026670706 -0.057394266
0.008156125 -0.05316941 -0.034433313 -0.00040810346 -0.017036662 -0.08006063 -0.062404487 -0.048868395
-0.060121622 0.06251321 0.00794071 -0.00710402 -0.04100532 0.0046347426 -0.07823743 0.0366764
0.03987862 0.015386927 -0.059620015 -0.08781577 0.00454765 -0.074701436 -0.03823656 -0.04053571
-0.092941664 0.0011062475 0.020800736 0.03759448 -0.038280997 0.01693139 -0.04328825 -0.025562407
0.01695028 -0.038950715 -0.04428909 0.007869032 -0.057780523 -0.04351433 -0.021117706 -0.06467695
0.030722557 0.056250863 0.013533227 0.025597125 -0.06776111 0.0011915364 0.013412465 -0.048938997

fc_pi.bias f4 [100]
00000000: 70bf 163d e9ed 3c3c 8e69 053d 6e43 9d3d
00000010: 1993 923d 27a9 cabc 0032 cf36 cecf c23d
00000020: 0378 38bd 0084 9d3d bbab bebd 3da8 bd3d
00000030: 4061 29bd ffe1 aabd e823 2abc bb45 babc
00000040: e442 31bb 94f9 11bd 626d c1bd 3b04 71bb
00000050: 1e80 36bc 2eb4 fbbb 7af9 fcbc 9d32 17bd
00000060: 5a02 8dbd 4701 1a3d c6f3 a4bd 26f3 b4bd
00000070: b7c4 77bd 525d b73c 799c 71bc 28bf 1d3d
00000080: dad7 b1bd 4caa b0bd 6280 c4bd bab1 903c
00000090: 36af 8fbd b0b1 acbd 488a 2bbc fedd 60bb
000000a0: 9a8e babd bf70 6dbd eca0 9bbd f446 703c
000000b0: d61e a8bd d37a 94bc f6af af3b 74b0 053d
000000c0: 6971 1abd 34a3 333d c7cc bebb 0c2b 043d
000000d0: 4299 a4bd 86fb 69bc f0d5 85bd 1413 9fbd
000000e0: 94b9 393c 03d7 0fbd ba34 d7bc 8c6f 963c
000000f0: 7947 9dbd 34b7 57bd 9cc8 a2bd ad9d 83bd
00000100: 2618 8a3c 5972 9bbd 62ff 95bb 77dc 013c
00000110: 8fab 84ba 3e59 793c 1560 c3bc d830 95bd
00000120: ba24 15bb 9b4b 8abd 5d91 91bc 4178 09bd
00000130: 4631 f1bc b7fd ce3c b79b c0bc 4477 75bd
00000140: eb8f 81bd 6ba8 9fbd ba5c 9ebd ae0c 2cbd
00000150: 4eb8 c63c 7cf1 163d aa94 aebd d348 e6bb
00000160: 95d3 7ebd 8fd3 2d3c 0baa e03c 5bfe 7abd
00000170: 3afe 013d 88c5 89bd e46c 88bd afdc 46bd
00000180: 3a60 49bb e31c 0b3c 333f a0bd 4fe4 8ebd
0.036803663 0.011531332 0.032571368 0.07678877 0.07156963 -0.024738861 6.1749015e-06 0.09512292
-0.045036327 0.076911926 -0.09310099 0.092606045 -0.04135251 -0.083438866 -0.010384537 -0.022738328
-0.0027047927 -0.035638407 -0.09444691 -0.0036776203 -0.011138944 -0.007681391 -0.030880678 -0.036913503
-0.06885214 0.037598874 -0.080543086 -0.088354394 -0.060490336 0.022383366 -0.014746779 0.03851238
-0.086837485 -0.086262316 -0.095947996 0.017662872 -0.07015841 -0.08432329 -0.010469981 -0.0034312005
-0.0910923 -0.05796885 -0.07599053 0.014665354 -0.082090065 -0.018124973 0.0053615524 0.032638982
-0.037705813 0.043856815 -0.005822751 0.032267615 -0.08037044 -0.014281159 -0.06534946 -0.07767311
0.011335749 -0.03511716 -0.02627026 0.018363737 -0.07679648 -0.05266495 -0.079484195 -0.06426559
0.016857218 -0.075901695 -0.004577563 0.007926098 -0.0010121929 0.015219031 -0.023849526 -0.07284707
-0.0022757486 -0.06752702 -0.01776951 -0.03356195 -0.02944244 0.025267465 -0.02351175 -0.059928194
-0.06326278 -0.07795795 -0.0773253 -0.04200428 0.024257805 0.03685139 -0.08524449 -0.0070277243
-0.0622135 0.0106095215 0.027424833 -0.06127773 0.03173659 -0.06727129 -0.06661394 -0.048550304
-0.0030727522 0.008490774 -0.07824554 -0.0697714
